…
WARNING:tensorflow:From C:\Users\Ana\Anaconda3\lib\site-packages\tensorflow_core\python\ops\resource_variable_ops.py:1630: calling BaseResourceVariable.__init__ (from tensorflow.python.ops.resource_variable_ops) with constraint is deprecated and will be removed in a future version.
Instructions for updating:
If using Keras pass *_constraint arguments to layers.
Model: "sequential"
_________________________________________________________________
Layer (type)                 Output Shape              Param #   
=================================================================
conv2d (Conv2D)              (None, 98, 98, 32)        1184      
_________________________________________________________________
max_pooling2d (MaxPooling2D) (None, 47, 47, 32)        0         
_________________________________________________________________
conv2d_1 (Conv2D)            (None, 44, 44, 64)        32832     
_________________________________________________________________
max_pooling2d_1 (MaxPooling2 (None, 13, 13, 64)        0         
_________________________________________________________________
conv2d_2 (Conv2D)            (None, 13, 13, 128)       8320      
_________________________________________________________________
max_pooling2d_2 (MaxPooling2 (None, 4, 4, 128)         0         
_________________________________________________________________
flatten (Flatten)            (None, 2048)              0         
_________________________________________________________________
dense (Dense)                (None, 384)               786816    
_________________________________________________________________
layer1 (Dense)               (None, 64)                24640     
_________________________________________________________________
layer2 (Dense)               (None, 8)                 520       
_________________________________________________________________
layer3 (Dense)               (None, 2)                 18        
=================================================================
Total params: 854,330
Trainable params: 854,330
Non-trainable params: 0
_________________________________________________________________
2021-02-10 10:46:49.713883: I tensorflow/stream_executor/platform/default/dso_loader.cc:44] Successfully opened dynamic library nvcuda.dll
2021-02-10 10:46:50.043409: I tensorflow/core/common_runtime/gpu/gpu_device.cc:1618] Found device 0 with properties: 
…
